…
Number of parameters keras dense layer with a 2D input,DataScience_421,What happens in the other dimension?,"If I flatten the input layer I obtain my expected number of parameters:  in_ = Input((5,10)) x = Flatten()(in_) out = Dense(100, activation='relu', name = 'dense_1')(x)  model = Model(in_, out) model.compile(loss='categorical_crossentropy', optimizer='adam') model.summary()  _________________________________________________________________ Layer (type)                 Output Shape              Param #    ================================================================= input_13 (InputLayer)        (None, 5, 10)             0          _________________________________________________________________ flatten_6 (Flatten)          (None, 50)                0          _________________________________________________________________ dense_1 (Dense)              (None, 100)               5100       ================================================================= Total params: 5,100 Trainable params: 5,100 Non-trainable params: 0 _________________________________________________________________   So what is going on with a Dense Layer when the previous layer has more than one dimension?",0
Number of parameters keras dense layer with a 2D input,DataScience_421,"If I flatten the input layer I obtain my expected number of parameters:  in_ = Input((5,10)) x = Flatten()(in_) out = Dense(100, activation='relu', name = 'dense_1')(x)  model = Model(in_, out) model.compile(loss='categorical_crossentropy', optimizer='adam') model.summary()  _________________________________________________________________ Layer (type)                 Output Shape              Param #    ================================================================= input_13 (InputLayer)        (None, 5, 10)             0          _________________________________________________________________ flatten_6 (Flatten)          (None, 50)                0          _________________________________________________________________ dense_1 (Dense)              (None, 100)               5100       ================================================================= Total params: 5,100 Trainable params: 5,100 Non-trainable params: 0 _________________________________________________________________   So what is going on with a Dense Layer when the previous layer has more than one dimension?",What happens with the dimensions and the dot products and biases?,0
Number of parameters keras dense layer with a 2D input,DataScience_421,What happens with the dimensions and the dot products and biases?,Why does the number of parameters changes?,0
…
(Dropout(0.5)) model.add(Dense(1, activation='sigmoid'))  model.compile(optimizer='Adam',           loss='binary_crossentropy',           metrics=['accuracy'])     #set early stopping monitor so the model stops training when it won't  improve anymore early_stopping_monitor = EarlyStopping(patience=3) #train model model.fit(train_X, train_y, validation_split=0.4, epochs=30, callbacks=[early_stopping_monitor]   here's the model summary  Layer (type)                 Output Shape              Param #    ================================================================= dense_1 (Dense)              (None, 500)               11000      _________________________________________________________________ dropout_1 (Dropout)          (None, 500)               0          _________________________________________________________________ dense_2 (Dense)              (None, 1000)              501000     _________________________________________________________________ dropout_2 (Dropout)          (None, 1000)              0          _________________________________________________________________ dense_3 (Dense)              (None, 1000)              1001000    _________________________________________________________________ dropout_3 (Dropout)          (None, 1000)              0          _________________________________________________________________ dense_4 (Dense)              (None, 500)               500500     _________________________________________________________________ dropout_4 (Dropout)          (None, 500)               0          _________________________________________________________________ dropout_5 (Dropout)          (None, 500)               0          _________________________________________________________________ dense_5 (Dense)              (None, 250)               125250     _________________________________________________________________ dropout_6 (Dropout)          (None, 250)               0          _________________________________________________________________ dense_6 (Dense)              (None, 250)               62750      _________________________________________________________________ dropout_7 (Dropout)          (None, 250)               0          _________________________________________________________________ dense_7 (Dense)              (None, 250)               62750      _________________________________________________________________ dropout_8 (Dropout)          (None, 250)               0          _________________________________________________________________ dense_8 (Dense)              (None, 1)                 251        ================================================================= Total params: 2,264,501 Trainable params: 2,264,501 Non-trainable params: 0 _________________________________________________________________   since the output is between 0 to 1 ,I  used sigmoid as my last layer  But the problem is the loss is not converging at all,what's the issue here ?","I also happen to have some 400k training data ,could that be the reason ?",0
…
 a deeper explanation?,0
How do I right feature selection for DBSCAN?,DataScience_1115,with features like positions or widths in pixel?,Should I weight some features before using StandardScaler that all have a similar value?,0
How to Determine Specific Activation Function from keras' .summary(),DataScience_1116,"Of course, I can call model.summary() on this model after loading it with load_model(), however the output looks like this:  Layer (type)                 Output Shape              Param #    ================================================================= conv1d_1 (Conv1D)            (None, 400, 32)           1568       _________________________________________________________________ batch_normalization_1 (Batch (None, 400, 32)           128        _________________________________________________________________ activation_1 (Activation)    (None, 400, 32)           0          _________________________________________________________________ max_pooling1d_1 (MaxPooling1 (None, 100, 32)           0          _________________________________________________________________ conv1d_2 (Conv1D)            (None, 100, 64)           32832      _________________________________________________________________ batch_normalization_2 (Batch (None, 100, 64)           256        _________________________________________________________________ activation_2 (Activation)    (None, 100, 64)           0          _________________________________________________________________ max_pooling1d_2 (MaxPooling1 (None, 25, 64)            0          _________________________________________________________________ conv1d_3 (Conv1D)            (None, 25, 128)           131200     _________________________________________________________________ batch_normalization_3 (Batch (None, 25, 128)           512        _________________________________________________________________ activation_3 (Activation)    (None, 25, 128)           0          _________________________________________________________________ max_pooling1d_3 (MaxPooling1 (None, 6, 128)            0          _________________________________________________________________ flatten_1 (Flatten)          (None, 768)               0          _________________________________________________________________ dense_1 (Dense)              (None, 80)                61520      _________________________________________________________________ batch_normalization_4 (Batch (None, 80)                320        _________________________________________________________________ activation_4 (Activation)    (None, 80)                0          _________________________________________________________________ dense_2 (Dense)              (None, 80)                6480       _________________________________________________________________ batch_normalization_5 (Batch (None, 80)                320        _________________________________________________________________ activation_5 (Activation)    (None, 80)                0          _________________________________________________________________ dense_3 (Dense)              (None, 2)                 162        _________________________________________________________________ activation_6 (Activation)    (None, 2)                 0            My question: is there a way to find out which activation function was used?",using existing keras methods?,32
Why the accuracy decreased with more data,DataScience_1117,Is this normal?,Or I have done something wrong?,0
Why the accuracy decreased with more data,DataScience_1117,Or I have done something wrong?,How can I fix it?,0
"Convolutional Neural Networks - When do I adjust parts of it, and how?",DataScience_1118,Is this a sign I have to change my layer structure?,"On that note, when should I change up my layer structure/hyperparameters like training steps, batch size, filter size, etc., and how?",0
…
How to model user's buying behavior on Amazon?,DataScience_4350,"Now, our Professor's question is, how will you validate your algorithm without real users?",Any ideas on how to model the users' behavior?,652
Predicting house pricing given a dataset consisting of [ location: date of transaction: price ],DataScience_4351,"What would be the algorithm/model that most fits this kind of problem, and how would I go about training it?",Is there additional data that I could infer from what I already have that would be useful for such a model?,0
How do I count every combination of numbers from left to right?,DataScience_4352,"1) [1, 2], [1, 2, 3], [1, 2, 3, 4], [1, 2, 3, 4, 5] 2) [2, 3], [2, 3, 4], [2, 3, 4, 5] 3) [3, 4], [3, 4, 5] 4) [4, 5]   ...how would you go about counting the combinations to get 10?","Looking at what I wrote in plain text, I can see maybe the answer is...  abs(1 - 5) = 4 abs(2 - 5) = 3 abs(3 - 5) = 2 abs(4 - 5) = 1 --------------     Total = 10   But What If?",72
How do I count every combination of numbers from left to right?,DataScience_4352,"Looking at what I wrote in plain text, I can see maybe the answer is...  abs(1 - 5) = 4 abs(2 - 5) = 3 abs(3 - 5) = 2 abs(4 - 5) = 1 --------------     Total = 10   But What If?","1) [2, 3], [2, 3, 4,], [2, 3, 4, 10] 2) [3, 4], [3, 4, 10] 3) [4, 10]   In this case, would it be a good approach to ignore the values and just focus on the total numbers of values?",0
How do I count every combination of numbers from left to right?,DataScience_4352,"1) [2, 3], [2, 3, 4,], [2, 3, 4, 10] 2) [3, 4], [3, 4, 10] 3) [4, 10]   In this case, would it be a good approach to ignore the values and just focus on the total numbers of values?","So, instead of it being    [2, 3], [2, 3, 4]   I should convert it to...   [1, 2], [1, 2, 3]   Then do the above method of abs(1 - 4) = 3?",0
Typing error handling n-gram character index and vector space model,DataScience_4353,"However, what are the problems that I need to be aware of if I implement tfidf/vector-space model?","The reason I am exploring this option is to try handling basic spelling error handling, does it really work in practice?",0
…
Feature selection before or after applying filter in Time-series forecasting,DataScience_4672,"My question is, if I want to perform feature selection, do I do it before or after applying the filter?",What is the logical order?,0
Resource and useful tips on Transfer Learning in NLP,DataScience_4673,Can anyone give me some useful resource for transfer learning in NLP domain?,My model architecture is given below-   Q1: I have a quick question will it be referred to as Transfer learning if I use GLOVE embeddings in model?,247
How do I provide input and output for such a network structure in keras,DataScience_4674,"The way I've constructed the model is as such:   #Convolution for different section conv2d_[convolution#]_[model#] conv2d_1_1 = Conv2D(filters = 32, kernel_size = (3,3) , padding = ""same"" , activation = 'relu' , input_shape = (3,6,3)) conv2d_2_1 = Conv2D(filters = 64, kernel_size = (3,3) , padding = ""same"" , activation = 'relu' )(conv2d_1_1) conv2d_3_1 = Conv2D(filters = 64, kernel_size = (3,3) , padding = ""same"" , activation = 'relu' )(conv2d_2_1) conv2d_4_1 = Conv2D(filters = 32, kernel_size = (1,1) , padding = ""same"" , activation = 'relu' )(conv2d_3_1) conv2d_4_1_flatten = Flatten()(conv2d_4_1)  conv2d_1_2 = Conv2D(filters = 32, kernel_size = (3,3) , padding = ""same"" , activation = 'relu' , input_shape = (3,6,3)) conv2d_2_2 = Conv2D(filters = 64, kernel_size = (3,3) , padding = ""same"" , activation = 'relu' )(conv2d_1_2) conv2d_3_2 = Conv2D(filters = 64, kernel_size = (3,3) , padding = ""same"" , activation = 'relu' )(conv2d_2_2) conv2d_4_2 = Conv2D(filters = 32, kernel_size = (1,1) , padding = ""same"" , activation = 'relu' )(conv2d_3_2) conv2d_4_2_flatten = Flatten()(conv2d_4_2)  conv2d_1_3 = Conv2D(filters = 32, kernel_size = (3,3) , padding = ""same"" , activation = 'relu' , input_shape = (3,6,3)) conv2d_2_3 = Conv2D(filters = 64, kernel_size = (3,3) , padding = ""same"" , activation = 'relu' )(conv2d_1_3) conv2d_3_3 = Conv2D(filters = 64, kernel_size = (3,3) , padding = ""same"" , activation = 'relu' )(conv2d_2_3) conv2d_4_3 = Conv2D(filters = 32, kernel_size = (1,1) , padding = ""same"" , activation = 'relu' )(conv2d_3_3) conv2d_4_3_flatten = Flatten()(conv2d_4_3)  conv2d_1_4 = Conv2D(filters = 32, kernel_size = (3,3) , padding = ""same"" , activation = 'relu' , input_shape = (3,6,3)) conv2d_2_4 = Conv2D(filters = 64, kernel_size = (3,3) , padding = ""same"" , activation = 'relu' )(conv2d_1_4) conv2d_3_4 = Conv2D(filters = 64, kernel_size = (3,3) , padding = ""same"" , activation = 'relu' )(conv2d_2_4) conv2d_4_4 = Conv2D(filters = 32, kernel_size = (1,1) , padding = ""same"" , activation = 'relu' )(conv2d_3_4) conv2d_4_4_flatten = Flatten()(conv2d_4_4)  #Merging the output of the convolution merge = Merged([conv2d_4_1_flatten, conv2d_4_2_flatten,                 conv2d_4_3_flatten, conv2d_4_4_flatten] mode = 'concat')  #Connecting the merged layer to the fully connected layer dense1 = Dense(activation = 'relu')(merge) dense2 = Dense(activation = 'relu')(dense1) dense3 = Dense(output = 1 ,activation = 'softmax')(dense3)   This (I guess) CNN model should now be connected, but how do I train it given the input and outputs I have?",How do I parse it?,0
…
